  (reference_points): Linear(in_features=256, out_features=3, bias=True)
  (query_interact): QueryInteractionModule(
    (self_attn): MultiheadAttention(
      (out_proj): NonDynamicallyQuantizableLinear(in_features=256, out_features=256, bias=True)
    )
    (linear1): Linear(in_features=256, out_features=256, bias=True)
    (dropout): Dropout(p=0, inplace=False)
    (linear2): Linear(in_features=256, out_features=256, bias=True)
    (linear_pos1): Linear(in_features=256, out_features=256, bias=True)
    (linear_pos2): Linear(in_features=256, out_features=256, bias=True)
    (dropout_pos1): Dropout(p=0, inplace=False)
    (dropout_pos2): Dropout(p=0, inplace=False)
    (norm_pos): LayerNorm((256,), eps=1e-05, elementwise_affine=True)
    (linear_feat1): Linear(in_features=256, out_features=256, bias=True)
    (linear_feat2): Linear(in_features=256, out_features=256, bias=True)
    (dropout_feat1): Dropout(p=0, inplace=False)
    (dropout_feat2): Dropout(p=0, inplace=False)
    (norm_feat): LayerNorm((256,), eps=1e-05, elementwise_affine=True)
    (norm1): LayerNorm((256,), eps=1e-05, elementwise_affine=True)
    (norm2): LayerNorm((256,), eps=1e-05, elementwise_affine=True)
    (dropout1): Dropout(p=0, inplace=False)
    (dropout2): Dropout(p=0, inplace=False)
  )
  (memory_bank): MemoryBank(
    (save_proj): Linear(in_features=256, out_features=256, bias=True)
    (temporal_attn): MultiheadAttention(
      (out_proj): NonDynamicallyQuantizableLinear(in_features=256, out_features=256, bias=True)
    )
    (temporal_fc1): Linear(in_features=256, out_features=256, bias=True)
    (temporal_fc2): Linear(in_features=256, out_features=256, bias=True)
    (temporal_norm1): LayerNorm((256,), eps=1e-05, elementwise_affine=True)
    (temporal_norm2): LayerNorm((256,), eps=1e-05, elementwise_affine=True)
  )
  (criterion): ClipMatcher(
    (loss_cls): FocalLoss()
    (loss_bboxes): L1Loss()
    (loss_predictions): SmoothL1Loss()
  )
  (seg_head): PansegformerHead(
    (loss_cls): FocalLoss()
    (loss_bbox): L1Loss()
    (loss_iou): GIoULoss()
    (activate): ReLU(inplace=True)
    (positional_encoding): SinePositionalEncoding(num_feats=128, temperature=10000, normalize=True, scale=6.283185307179586, eps=1e-06)
    (transformer): SegDeformableTransformer(
      (encoder): DetrTransformerEncoder(
        (layers): ModuleList(
          (0-5): 6 x BaseTransformerLayer(
            (attentions): ModuleList(
              (0): MultiScaleDeformableAttention(
                (dropout): Dropout(p=0.1, inplace=False)
                (sampling_offsets): Linear(in_features=256, out_features=256, bias=True)
                (attention_weights): Linear(in_features=256, out_features=128, bias=True)
                (value_proj): Linear(in_features=256, out_features=256, bias=True)
                (output_proj): Linear(in_features=256, out_features=256, bias=True)
              )
            )
            (ffns): ModuleList(
              (0): FFN(
                (activate): ReLU(inplace=True)
                (layers): Sequential(
                  (0): Sequential(
                    (0): Linear(in_features=256, out_features=512, bias=True)
                    (1): ReLU(inplace=True)
                    (2): Dropout(p=0.1, inplace=False)
                  )
                  (1): Linear(in_features=512, out_features=256, bias=True)
                  (2): Dropout(p=0.1, inplace=False)
                )
                (dropout_layer): Identity()
              )
            )
            (norms): ModuleList(
              (0-1): 2 x LayerNorm((256,), eps=1e-05, elementwise_affine=True)
            )
          )
        )
      )
      (decoder): DeformableDetrTransformerDecoder(
        (layers): ModuleList(
          (0-5): 6 x DetrTransformerDecoderLayer(
            (attentions): ModuleList(
              (0): MultiheadAttention(
                (attn): MultiheadAttention(
                  (out_proj): NonDynamicallyQuantizableLinear(in_features=256, out_features=256, bias=True)
                )
                (proj_drop): Dropout(p=0.0, inplace=False)
                (dropout_layer): Dropout(p=0.1, inplace=False)
              )
              (1): MultiScaleDeformableAttention(
                (dropout): Dropout(p=0.1, inplace=False)
                (sampling_offsets): Linear(in_features=256, out_features=256, bias=True)
                (attention_weights): Linear(in_features=256, out_features=128, bias=True)
                (value_proj): Linear(in_features=256, out_features=256, bias=True)
                (output_proj): Linear(in_features=256, out_features=256, bias=True)
              )
            )
            (ffns): ModuleList(
              (0): FFN(
                (activate): ReLU(inplace=True)
                (layers): Sequential(
                  (0): Sequential(
                    (0): Linear(in_features=256, out_features=512, bias=True)
                    (1): ReLU(inplace=True)
                    (2): Dropout(p=0.1, inplace=False)
                  )
                  (1): Linear(in_features=512, out_features=256, bias=True)
                  (2): Dropout(p=0.1, inplace=False)
                )
                (dropout_layer): Identity()
              )
            )
            (norms): ModuleList(
              (0-2): 3 x LayerNorm((256,), eps=1e-05, elementwise_affine=True)
            )
          )
        )
      )
      (reference_points): Linear(in_features=256, out_features=2, bias=True)
    )
    (bev_embedding): Embedding(40000, 256)
    (cls_branches): ModuleList(
      (0-5): 6 x Linear(in_features=256, out_features=3, bias=True)
    )
    (reg_branches): ModuleList(
      (0-5): 6 x Sequential(
        (0): Linear(in_features=256, out_features=256, bias=True)
        (1): ReLU()
        (2): Linear(in_features=256, out_features=256, bias=True)
        (3): ReLU()
        (4): Linear(in_features=256, out_features=4, bias=True)
      )
    )
    (query_embedding): Embedding(100, 512)
    (stuff_query): Embedding(1, 512)
    (reg_branches2): ModuleList(
      (0-3): 4 x Sequential(
        (0): Linear(in_features=256, out_features=256, bias=True)
        (1): ReLU()
        (2): Linear(in_features=256, out_features=256, bias=True)
        (3): ReLU()
        (4): Linear(in_features=256, out_features=4, bias=True)
      )
    )
    (cls_thing_branches): ModuleList(
      (0-3): 4 x Linear(in_features=256, out_features=3, bias=True)
    )
    (cls_stuff_branches): ModuleList(
      (0-5): 6 x Linear(in_features=256, out_features=1, bias=True)
    )
    (loss_mask): DiceLoss()
    (things_mask_head): SegMaskHead(
      (blocks): ModuleList(
        (0-3): 4 x Block(
          (head_norm1): LayerNorm((256,), eps=1e-06, elementwise_affine=True)
          (attn): Attention(
            (q): Linear(in_features=256, out_features=256, bias=True)
            (k): Linear(in_features=256, out_features=256, bias=True)
            (v): Linear(in_features=256, out_features=256, bias=True)
            (attn_drop): Dropout(p=0, inplace=False)
            (proj): Linear(in_features=256, out_features=256, bias=True)
            (proj_drop): Dropout(p=0, inplace=False)
            (linear_l1): Sequential(
              (0): Linear(in_features=8, out_features=8, bias=True)
              (1): ReLU()
            )
            (linear): Sequential(
              (0): Linear(in_features=8, out_features=1, bias=True)
              (1): ReLU()
            )
          )
          (drop_path): Identity()
          (head_norm2): LayerNorm((256,), eps=1e-06, elementwise_affine=True)
          (mlp): Mlp(
            (fc1): Linear(in_features=256, out_features=1024, bias=True)
            (act): GELU(approximate='none')
            (fc2): Linear(in_features=1024, out_features=256, bias=True)
            (drop): Dropout(p=0, inplace=False)
          )
        )
      )
      (attnen): AttentionTail(
        (q): Linear(in_features=256, out_features=256, bias=True)
        (k): Linear(in_features=256, out_features=256, bias=True)
        (linear_l1): Sequential(
          (0): Linear(in_features=8, out_features=8, bias=True)
          (1): ReLU()
        )
        (linear): Sequential(
          (0): Linear(in_features=8, out_features=1, bias=True)
          (1): ReLU()
        )
      )
    )
    (stuff_mask_head): SegMaskHead(
      (blocks): ModuleList(
        (0-5): 6 x Block(
          (head_norm1): LayerNorm((256,), eps=1e-06, elementwise_affine=True)
          (attn): Attention(
            (q): Linear(in_features=256, out_features=256, bias=True)
            (k): Linear(in_features=256, out_features=256, bias=True)
            (v): Linear(in_features=256, out_features=256, bias=True)
            (attn_drop): Dropout(p=0, inplace=False)
            (proj): Linear(in_features=256, out_features=256, bias=True)
            (proj_drop): Dropout(p=0, inplace=False)
            (linear_l1): Sequential(
              (0): Linear(in_features=8, out_features=8, bias=True)
              (1): ReLU()
            )
            (linear): Sequential(
              (0): Linear(in_features=8, out_features=1, bias=True)
              (1): ReLU()
            )
          )
          (drop_path): Identity()
          (head_norm2): LayerNorm((256,), eps=1e-06, elementwise_affine=True)
          (mlp): Mlp(
            (fc1): Linear(in_features=256, out_features=1024, bias=True)
            (act): GELU(approximate='none')
            (fc2): Linear(in_features=1024, out_features=256, bias=True)
            (drop): Dropout(p=0, inplace=False)
          )
          (self_attention): SelfAttention(
            (qkv): Linear(in_features=256, out_features=768, bias=True)
            (attn_drop): Dropout(p=0, inplace=False)
            (proj): Linear(in_features=256, out_features=256, bias=True)
            (proj_drop): Dropout(p=0, inplace=False)
          )
          (norm3): LayerNorm((256,), eps=1e-06, elementwise_affine=True)
        )
      )
      (attnen): AttentionTail(
        (q): Linear(in_features=256, out_features=256, bias=True)
        (k): Linear(in_features=256, out_features=256, bias=True)
        (linear_l1): Sequential(
          (0): Linear(in_features=8, out_features=8, bias=True)
          (1): ReLU()
        )
        (linear): Sequential(
          (0): Linear(in_features=8, out_features=1, bias=True)
          (1): ReLU()
        )
      )
    )
  )
  (motion_head): MotionHead(
    (loss_traj): TrajLoss()
    (unflatten_traj): Unflatten(dim=3, unflattened_size=(12, 5))
    (log_softmax): LogSoftmax(dim=2)
    (learnable_motion_query_embedding): Embedding(24, 256)
    (motionformer): MotionTransformerDecoder(
      (intention_interaction_layers): IntentionInteraction(
        (interaction_transformer): TransformerEncoderLayer(
          (self_attn): MultiheadAttention(
            (out_proj): NonDynamicallyQuantizableLinear(in_features=256, out_features=256, bias=True)
          )
          (linear1): Linear(in_features=256, out_features=512, bias=True)
          (dropout): Dropout(p=0.1, inplace=False)
          (linear2): Linear(in_features=512, out_features=256, bias=True)
          (norm1): LayerNorm((256,), eps=1e-05, elementwise_affine=True)
          (norm2): LayerNorm((256,), eps=1e-05, elementwise_affine=True)
          (dropout1): Dropout(p=0.1, inplace=False)
          (dropout2): Dropout(p=0.1, inplace=False)
        )
      )
      (track_agent_interaction_layers): ModuleList(
        (0-2): 3 x TrackAgentInteraction(
          (interaction_transformer): TransformerDecoderLayer(
            (self_attn): MultiheadAttention(
              (out_proj): NonDynamicallyQuantizableLinear(in_features=256, out_features=256, bias=True)
            )
            (multihead_attn): MultiheadAttention(
              (out_proj): NonDynamicallyQuantizableLinear(in_features=256, out_features=256, bias=True)
            )
            (linear1): Linear(in_features=256, out_features=512, bias=True)
            (dropout): Dropout(p=0.1, inplace=False)
            (linear2): Linear(in_features=512, out_features=256, bias=True)
            (norm1): LayerNorm((256,), eps=1e-05, elementwise_affine=True)
            (norm2): LayerNorm((256,), eps=1e-05, elementwise_affine=True)
            (norm3): LayerNorm((256,), eps=1e-05, elementwise_affine=True)
            (dropout1): Dropout(p=0.1, inplace=False)
            (dropout2): Dropout(p=0.1, inplace=False)
            (dropout3): Dropout(p=0.1, inplace=False)
          )
        )
      )
      (map_interaction_layers): ModuleList(
        (0-2): 3 x MapInteraction(
          (interaction_transformer): TransformerDecoderLayer(
            (self_attn): MultiheadAttention(
              (out_proj): NonDynamicallyQuantizableLinear(in_features=256, out_features=256, bias=True)
            )
            (multihead_attn): MultiheadAttention(
              (out_proj): NonDynamicallyQuantizableLinear(in_features=256, out_features=256, bias=True)
            )
            (linear1): Linear(in_features=256, out_features=512, bias=True)
            (dropout): Dropout(p=0.1, inplace=False)
            (linear2): Linear(in_features=512, out_features=256, bias=True)
            (norm1): LayerNorm((256,), eps=1e-05, elementwise_affine=True)
            (norm2): LayerNorm((256,), eps=1e-05, elementwise_affine=True)
            (norm3): LayerNorm((256,), eps=1e-05, elementwise_affine=True)
            (dropout1): Dropout(p=0.1, inplace=False)
            (dropout2): Dropout(p=0.1, inplace=False)
            (dropout3): Dropout(p=0.1, inplace=False)
          )
        )
      )
      (bev_interaction_layers): ModuleList(
        (0-2): 3 x MotionTransformerAttentionLayer(
          (attentions): ModuleList(
            (0): MotionDeformableAttention(
              (dropout): Dropout(p=0.1, inplace=False)
              (sampling_offsets): Linear(in_features=256, out_features=768, bias=True)
              (attention_weights): Linear(in_features=256, out_features=384, bias=True)
              (value_proj): Linear(in_features=256, out_features=256, bias=True)
              (output_proj): Sequential(
                (0): Linear(in_features=3072, out_features=256, bias=True)
                (1): LayerNorm((256,), eps=1e-05, elementwise_affine=True)
                (2): ReLU(inplace=True)
              )
            )
          )
          (ffns): ModuleList(
            (0): FFN(
              (activate): ReLU(inplace=True)
              (layers): Sequential(
                (0): Sequential(
                  (0): Linear(in_features=256, out_features=512, bias=True)
                  (1): ReLU(inplace=True)
                  (2): Dropout(p=0.1, inplace=False)
                )
                (1): Linear(in_features=512, out_features=256, bias=True)
                (2): Dropout(p=0.1, inplace=False)
              )
              (dropout_layer): Identity()
            )
          )
          (norms): ModuleList(
            (0-1): 2 x LayerNorm((256,), eps=1e-05, elementwise_affine=True)
          )
        )
      )
      (static_dynamic_fuser): Sequential(
        (0): Linear(in_features=512, out_features=512, bias=True)
        (1): ReLU()
        (2): Linear(in_features=512, out_features=256, bias=True)
      )
      (dynamic_embed_fuser): Sequential(
        (0): Linear(in_features=768, out_features=512, bias=True)
        (1): ReLU()
        (2): Linear(in_features=512, out_features=256, bias=True)
      )
      (in_query_fuser): Sequential(
        (0): Linear(in_features=512, out_features=512, bias=True)
        (1): ReLU()
        (2): Linear(in_features=512, out_features=256, bias=True)
      )
      (out_query_fuser): Sequential(
        (0): Linear(in_features=1024, out_features=512, bias=True)
        (1): ReLU()
        (2): Linear(in_features=512, out_features=256, bias=True)
      )
    )
    (layer_track_query_fuser): Sequential(
      (0): Linear(in_features=1536, out_features=256, bias=True)
      (1): LayerNorm((256,), eps=1e-05, elementwise_affine=True)
      (2): ReLU(inplace=True)
    )
    (agent_level_embedding_layer): Sequential(
      (0): Linear(in_features=256, out_features=512, bias=True)
      (1): ReLU()
      (2): Linear(in_features=512, out_features=256, bias=True)
    )
    (scene_level_ego_embedding_layer): Sequential(
      (0): Linear(in_features=256, out_features=512, bias=True)
      (1): ReLU()
      (2): Linear(in_features=512, out_features=256, bias=True)
    )
    (scene_level_offset_embedding_layer): Sequential(
      (0): Linear(in_features=256, out_features=512, bias=True)
      (1): ReLU()
      (2): Linear(in_features=512, out_features=256, bias=True)
    )
    (boxes_query_embedding_layer): Sequential(
      (0): Linear(in_features=256, out_features=512, bias=True)
      (1): ReLU()
      (2): Linear(in_features=512, out_features=256, bias=True)
    )
    (traj_cls_branches): ModuleList(
      (0-2): 3 x Sequential(
        (0): Linear(in_features=256, out_features=256, bias=True)
        (1): LayerNorm((256,), eps=1e-05, elementwise_affine=True)
        (2): ReLU(inplace=True)
        (3): Linear(in_features=256, out_features=256, bias=True)
        (4): LayerNorm((256,), eps=1e-05, elementwise_affine=True)
        (5): ReLU(inplace=True)
        (6): Linear(in_features=256, out_features=1, bias=True)
      )
    )
    (traj_reg_branches): ModuleList(
      (0-2): 3 x Sequential(
        (0): Linear(in_features=256, out_features=256, bias=True)
        (1): ReLU()
        (2): Linear(in_features=256, out_features=256, bias=True)
        (3): ReLU()
        (4): Linear(in_features=256, out_features=60, bias=True)
      )
    )
  )
  (planning_head): PlanningHeadSingleMode(
    (navi_embed): Embedding(3, 256)
    (reg_branch): Sequential(
      (0): Linear(in_features=256, out_features=256, bias=True)
      (1): ReLU()
      (2): Linear(in_features=256, out_features=12, bias=True)
    )
    (loss_planning): PlanningLoss()
    (attn_module): TransformerDecoder(
      (layers): ModuleList(
        (0-2): 3 x TransformerDecoderLayer(
          (self_attn): MultiheadAttention(
            (out_proj): NonDynamicallyQuantizableLinear(in_features=256, out_features=256, bias=True)
          )
          (multihead_attn): MultiheadAttention(
            (out_proj): NonDynamicallyQuantizableLinear(in_features=256, out_features=256, bias=True)
          )
          (linear1): Linear(in_features=256, out_features=512, bias=True)
          (dropout): Dropout(p=0.1, inplace=False)
          (linear2): Linear(in_features=512, out_features=256, bias=True)
          (norm1): LayerNorm((256,), eps=1e-05, elementwise_affine=True)
          (norm2): LayerNorm((256,), eps=1e-05, elementwise_affine=True)
          (norm3): LayerNorm((256,), eps=1e-05, elementwise_affine=True)
          (dropout1): Dropout(p=0.1, inplace=False)
          (dropout2): Dropout(p=0.1, inplace=False)
          (dropout3): Dropout(p=0.1, inplace=False)
        )
      )
    )
    (mlp_fuser): Sequential(
      (0): Linear(in_features=768, out_features=256, bias=True)
      (1): LayerNorm((256,), eps=1e-05, elementwise_affine=True)
      (2): ReLU(inplace=True)
    )
    (pos_embed): Embedding(1, 256)
    (loss_collision): ModuleList()
  )
)
Traceback (most recent call last):
  File "/home/guo/miniforge3/envs/uniad/lib/python3.9/site-packages/mmcv/utils/registry.py", line 69, in build_from_cfg
    return obj_cls(**args)
  File "/home/guo/UniAD/UniAD/projects/mmdet3d_plugin/datasets/nuscenes_e2e_dataset.py", line 78, in __init__
    super().__init__(*args, **kwargs)
  File "/home/guo/miniforge3/envs/uniad/lib/python3.9/site-packages/mmdet3d/datasets/nuscenes_dataset.py", line 131, in __init__
…
